model.pth (torch, 506715 bytes, 13 tensors)

weight f4 [32, 3, 3, 3]
0	0xbe423a88	-0.1896764
1	0xbd9cecdb	-0.07662364
2	0xbc33d85c	-0.010976877
3	0xbd93a3a4	-0.07208946
4	0xbe929a8a	-0.2863353
5	0x3dce4b87	0.100729994
6	0xbc35340a	-0.01105977
7	0x3c5ef579	0.01360833
8	0x3e3e5a08	0.18589032
9	0x3e69f959	0.22849025
10	0xbd6ec3ef	-0.058292326
11	0x3e4cb3bc	0.19990438
12	0x3e183da7	0.14867269
13	0x3dd0fc0a	0.10204323
14	0xbdfc1400	-0.12308502
15	0x3d260408	0.04053119
16	0x3e24b2a6	0.16083774
17	0xbdbaf397	-0.09128492
18	0x3e541109	0.20709623
19	0xbe2d38b2	-0.16916159
20	0x3dac2581	0.08405591
21	0xbd98e9a5	-0.07466439
22	0x3e11997d	0.14218707
23	0x3e0431af	0.12909578
24	0x3dcc5895	0.09977833
25	0xbde5af44	-0.1121507
26	0x3d666269	0.056246195
27	0xbce4c894	-0.027927674
28	0xbdf563d5	-0.11981932
29	0x3e1bd57b	0.15218155
30	0xbdc6043a	-0.09668775
31	0xbe480844	-0.19534403
32	0xbdb50ef2	-0.08840741
33	0x3ccb1ba8	0.024793461
34	0x3e3b273e	0.18276688
35	0xbdc36e65	-0.095425405
36	0xbd0e99e5	-0.034814734
37	0x3dd83adf	0.10558104
38	0x3dd1f9b5	0.10252706
39	0x3e0eabb2	0.13932684
40	0xbe124a1f	-0.14286087
41	0xbd41689d	-0.047218908
42	0x3e21ba3b	0.15793698
43	0x3e1b8750	0.15188336
44	0x3b9b11de	0.0047323545
45	0x3e2fa4bc	0.17152685
46	0xbd9697bc	-0.0735316
47	0xbcdc1d48	-0.026869431
48	0xbbd7c9b4	-0.006585324
49	0xbe218c64	-0.15776211
50	0x3e5b528a	0.21418205
51	0xbdb4c963	-0.08827474
52	0x3de0c18c	0.10974416
53	0xbd96368a	-0.07334621
54	0x3e10e722	0.1415067
55	0xbe35d7b0	-0.1775806
56	0xbe20e16c	-0.15710992
57	0xbe499a29	-0.19687714
58	0x3e79dcb9	0.24400605
59	0xbdfdc914	-0.12391868
60	0xbe68b2dd	-0.22724481
61	0x3c2b4a44	0.010454718
62	0x3e3d6538	0.18495643
63	0xbcf26c02	-0.029592518
64	0xbe05947a	-0.1304492
65	0xbe126989	-0.14298071
66	0xbbe3479d	-0.006936027
67	0x3e2e0b09	0.16996397
68	0x3e2ea02d	0.1705329
69	0xbda7be56	-0.081906006
70	0x3e751d02	0.23936847
71	0x3cc4bc58	0.02401559
72	0x3e44b2cd	0.19208832
73	0xbdde9190	-0.108676076
74	0xbd1120b2	-0.03543157
75	0x3e2707c2	0.16311553
76	0x3e32b75b	0.17452757
77	0x3e2b560e	0.16732046
78	0xbb53a8b1	-0.0032296593
79	0x3c9a2c6e	0.018820014
80	0x3d7f4a02	0.06232644
81	0xbea0a918	-0.31379008
82	0x3d1d670f	0.038428362
83	0xbe01a11b	-0.12659113
84	0x3e059820	0.13046312
85	0x3e4033bd	0.18769737
86	0xbd658a83	-0.0560403
87	0x3e4f8713	0.2026637
88	0xbca994b9	-0.0207008
89	0xbe81c6fc	-0.25347126
90	0x3e0f79ba	0.14011279
91	0xbcd9f086	-0.026603948
92	0x3dcde236	0.10052912
93	0x3dc32f91	0.09530557
94	0x3c86fc92	0.016477857
95	0x3e5a8779	0.21340741
96	0x3ea64be6	0.3247978
97	0x3e8dc8d0	0.2769227
98	0x3e05dbe2	0.1307216
99	0x3d862f01	0.06551934
100	0xbe24be4f	-0.16088222
101	0xbdc4298d	-0.09578238
102	0x3d717f32	0.058959194
103	0xbc0b7e56	-0.008514008
104	0xbd8beb80	-0.068320274
105	0xbd2adfc5	-0.04171731
106	0xbe0df866	-0.13864288
107	0x3e2758cd	0.16342469
108	0xbe0cb057	-0.13739143
109	0x3d9ea356	0.077459976
110	0x3c25ae91	0.010112421
111	0xbe3d839b	-0.18507235
112	0xbd84f756	-0.06492488
113	0x3d8a1488	0.06742197
114	0x3e3e0b96	0.18559107
115	0x3e81afc4	0.2532941
116	0x3e24ce6a	0.16094366
117	0xbd862b1e	-0.06551193
118	0xbd20a02f	-0.039215263
119	0xbdedd3c9	-0.116126604
120	0x3c26a6eb	0.010171632
121	0xbda8e453	-0.082466744
122	0xbdc4aa25	-0.09602765
123	0x3ddae252	0.106876984
124	0x3ed32f65	0.41247097
125	0x3e7f7d29	0.24950089
126	0xbe13d5be	-0.14437005
127	0x3e27ddfb	0.16393273
128	0xbe1ccd0b	-0.15312593
129	0xbd7911ff	-0.060808178
130	0x3de57c98	0.11205405
131	0x3dfd4364	0.12366369
132	0x3c97d6d4	0.018535055
133	0x3d257a9f	0.040400144
134	0xbd8fcf3c	-0.07021949
135	0xbdfdf523	-0.12400272
136	0xbd84ea77	-0.06490033
137	0x3dcf6ec1	0.101285465
138	0x3dcbf671	0.09959114
139	0x3e2a432d	0.16627188
140	0xbce554f8	-0.027994618
141	0x3abded99	0.0014490365
142	0xbdc61252	-0.09671463
143	0x3e2f0eaf	0.17095445
144	0x3deef9f6	0.1166877
145	0x3e3e9f0c	0.18615359
146	0x3e7e6e3b	0.24846737
147	0x3dcd38ab	0.10020574
148	0x3d993a45	0.07481817
149	0x3d2b518e	0.041825823
150	0x3e109081	0.14117624
151	0x3e41970a	0.18905273
152	0x3d9b5d61	0.0758617
153	0x3ddef96c	0.10887417
154	0x3db3264b	0.08747538
155	0x3e1e2cdb	0.15446799
156	0x3e90a988	0.28254342
157	0x3e6fea81	0.234293
158	0x3d13aead	0.036055256
159	0x3e9a23c5	0.30105415
160	0x3e5fbb60	0.21848822
161	0x3e3f899e	0.1870484
162	0x3e6d2f2d	0.23162527
163	0xbe6d6617	-0.23183475
164	0x3dd5e87c	0.104447335
165	0x3ee96bf7	0.45590183
166	0x3e0248df	0.1272311
167	0xbdc2c5c3	-0.09510376
168	0x3e1cb284	0.15302473
169	0x3e74a5a0	0.23891306
170	0xbe834d99	-0.2564514
171	0x3cd37c54	0.02581612
172	0xbdea6038	-0.114441335
173	0xbdce5f2f	-0.100767486
174	0x3ed207ed	0.41021672
175	0x3ecd50ac	0.4010061
176	0x3cee8bc9	0.02911939
177	0x3bbfc15c	0.0058519077
178	0x3e6e6959	0.23282374
179	0x3be9561c	0.0071208607
180	0xbcb2e952	-0.021839771
181	0xbd877a07	-0.06615072
182	0x3d94d50c	0.07267198
183	0x3e1af4dd	0.1513247
184	0xbd65bd0b	-0.05608849
185	0x3bb771da	0.005598289
186	0xbe35f009	-0.17767347
187	0xbc9ffddf	-0.019530235
188	0xbe36813c	-0.17822737
189	0x3cb9c950	0.022679001
190	0xbde322fe	-0.110906586
191	0x3dcbd545	0.09952787
192	0x3e48fa05	0.19626625
193	0x3e2c589d	0.16830678
194	0x3e47d8e4	0.19516331
195	0x3d7be9ad	0.061502147
196	0x3e38e697	0.18056713
197	0x3da42d59	0.08016462
198	0x3dd9d9cc	0.106372446
199	0x3c15fa97	0.009153984
200	0x3d0cff28	0.034423023
201	0x3e86cb9e	0.26327223
202	0x3e827a87	0.25484106
203	0x3d45c2c4	0.048281446
204	0x3e940f62	0.28917986
205	0x3e698fad	0.22808714
206	0x3c134917	0.008989594
207	0xbe7ae66d	-0.24501963
208	0xbb8cbe32	-0.004295134
209	0xbd36f6ca	-0.04466895
210	0x3d7bb1ca	0.06144885
211	0xbe19ad94	-0.15007621
212	0x3e21e900	0.15811539
213	0x3e36228f	0.1778662
214	0x3e1288f7	0.1431006
215	0x3e35ddf6	0.17760453
216	0x3e09a780	0.13442802
217	0x3eecc7e4	0.46246254
218	0x3e200485	0.15626724
219	0xbdc4b31a	-0.096044734
220	0x3ebda446	0.37039393
221	0x3e86da96	0.26338643
222	0xbe66a9c0	-0.22525692
223	0xbdccd820	-0.1000216
224	0x3e35ae65	0.17742307
225	0xbce1ccc2	-0.027563456
226	0x3ecee93b	0.40412316
227	0x3e924641	0.28569224
228	0xbe493f5e	-0.19653079
229	0x3e36e51c	0.17860836
230	0x3dc1b49b	0.09458276
231	0xbe93b109	-0.28846005
232	0xbda479ed	-0.08031068
233	0xbdb1801b	-0.08667012
234	0xbd6ec0aa	-0.058289208
235	0xbcd1c53e	-0.025606748
236	0x3e09c207	0.13452922
237	0xbe539ede	-0.20666072
238	0xbd54e4e0	-0.051976085
239	0x3e33fbb5	0.17576487
240	0xbe0fe808	-0.14053357
241	0xbda8f631	-0.08250082
242	0xbdfeddaf	-0.124446265
243	0x3db4e890	0.0883342
244	0x3dff80cd	0.12475739
245	0x3f06059b	0.52352303
246	0xbe8fd64e	-0.2809319
247	0xbe381799	-0.17977752
248	0x3e719d52	0.23595169
249	0x3c9dd545	0.019266734
250	0xbd8ae241	-0.06781436
251	0xbe9892ae	-0.29799408
252	0x3c228466	0.009919262
253	0x3e1906b6	0.14943966
254	0x3eeb26c4	0.45928013
255	0xbd27afb9	-0.040939067

bias f4 [32]
0	0x3bc71978	0.006076034
1	0xbde5c4ef	-0.11219203
2	0xbdb91624	-0.09037426
3	0xbdeb3cc4	-0.114861995
4	0xbe1a48d4	-0.15066844
5	0xbda5042e	-0.08057438
6	0xbe33533c	-0.1751222
7	0xbe656d61	-0.22405006
8	0xbe0c25b0	-0.13686252
9	0xbd1af32c	-0.037829563
10	0xbe4030c9	-0.1876861
11	0xbe6548c8	-0.22391045
12	0xbdc9c260	-0.09851527
13	0xbddf19d1	-0.10893596
14	0x3e8a66fd	0.270317
15	0xbe25e875	-0.16201957
16	0xbe5f696a	-0.21817556
17	0xbd99d2db	-0.075109206
18	0xbdf058f8	-0.117357194
19	0x3e81ec0f	0.2537541
20	0xbe640474	-0.22267324
21	0x3ea96698	0.33086085
22	0xbddcc208	-0.10779196
23	0x3ea184e8	0.31546712
24	0x3e9e9ed2	0.30980545
25	0xbe32827b	-0.17432587
26	0xbd96d2e1	-0.07364441
27	0xbe28a3f1	-0.16468789
28	0xbe89f169	-0.26941994
29	0xbe46f331	-0.19428708
30	0xbd1f54b7	-0.03889915
31	0x3e4fe74e	0.2030308

weight f4 [64, 32, 3, 3]
0	0xbd20c1c0	-0.039247274
1	0x3ca19204	0.019722946
2	0xbd8354a1	-0.06412626
3	0x3bbff40e	0.005857951
4	0xbd9ebc74	-0.07750788
5	0xbddf5f57	-0.109068565
6	0x3cdcc159	0.026947664
7	0xbd534a65	-0.05158462
8	0xbd849a6f	-0.06474768
9	0x3bd649c5	0.0065395557
10	0x3c031f06	0.008003002
11	0xbd9c2633	-0.076244734
12	0xbd2aacfa	-0.04166887
13	0xbc93221a	-0.017960597
14	0xbd9b2ed5	-0.07577292
15	0x3cb2a2e2	0.021806184
16	0x3ce891a4	0.02838976
17	0xbdd61da7	-0.104548745
18	0xbcb0c88b	-0.021580001
19	0xbc6535dc	-0.013989892
20	0xbd8f1514	-0.06986442
21	0x3c8eca01	0.017430307
22	0x3d331da9	0.043729458
23	0x3d70b312	0.058764525
24	0xbbb667e4	-0.005566584
25	0xbca2d566	-0.019877147
26	0x3ac9a9de	0.0015385707
27	0xbcf2bbd1	-0.029630573
28	0x3c9dd0a5	0.019264529
29	0xbbc67eea	-0.00605761
30	0x3c760625	0.015016113
31	0x3d44d288	0.04805234
32	0xbd3cb8b8	-0.0460746
33	0x3ddb2e7a	0.10702224
34	0xbcc4fbf5	-0.024045924
35	0x3c855077	0.01627372
36	0x3e1f2c38	0.15544212
37	0x3de6206f	0.11236655
38	0x3d15e948	0.036599427
39	0x3c4a94f4	0.012364615
40	0x3d4a8d98	0.04945144
41	0xbd87fc84	-0.066399604
42	0x3bf75b57	0.0075487304
43	0x3c9551cf	0.018227486
44	0xbdb75801	-0.08952332
45	0xbd97dedc	-0.07415554
46	0xbd86a2d9	-0.065740295
47	0xbda31199	-0.07962341
48	0x3d280016	0.041015707
49	0xbda635c1	-0.081157215
50	0xbdcc1ddf	-0.09966635
51	0x3c220bf6	0.009890547
52	0x3cd0af8c	0.025474332
53	0xbc8b308f	-0.016990928
54	0x3e8da7c1	0.2766705
55	0x3e8b289d	0.27179423
56	0x3e54df4e	0.20788309
57	0x3e77e961	0.2421012
58	0x3e878127	0.26465723
59	0x3e718e7a	0.23589507
60	0x3eac17c8	0.33611894
61	0x3e905957	0.2819316
62	0x3e277a4d	0.16355248
63	0xbc66944e	-0.0140734445
64	0xbd201d64	-0.03909053
65	0xbd64c11f	-0.055848237
66	0x3ba82d35	0.005132342
67	0x3d275fad	0.040862728
68	0xbd137e0c	-0.03600888
69	0xbda12f1b	-0.07870313
70	0x3dafee38	0.085903585
71	0xbdb11505	-0.08646587
72	0x3e6ce00c	0.23132342
73	0x3e1f2d90	0.15544724
74	0x3e703292	0.23456791
75	0x3e773d9a	0.24144593
76	0x3e174367	0.14771806
77	0x3e846641	0.25859264
78	0x3e806d94	0.250836
79	0x3e51d9cd	0.2049324
80	0x3e2e0c03	0.1699677
81	0x3e48827b	0.19581024
82	0x3ddca58e	0.107737646
83	0x3de8b83a	0.113632634
84	0x3e264665	0.16237791
85	0x3e1d7dc2	0.15380004
86	0x3e12bc52	0.14329651
87	0x3e822923	0.2542201
88	0x3df9a283	0.121892
89	0x3e28218e	0.1641905
90	0xbdf17bbc	-0.117911786
91	0x3ce577a3	0.028011149
92	0x3d24b5c1	0.040212397
93	0xbd48a0b7	-0.048981395
94	0xbb25b836	-0.00252868
95	0xbd72142f	-0.05910128
96	0xbd2b1be0	-0.04177463
97	0xbd5c101b	-0.053726297
98	0xbde2739f	-0.11057209
99	0x3e89ca75	0.26912275
100	0x3e5eede7	0.2177044
101	0x3e5889ef	0.21146367
102	0x3e90248b	0.2815288
103	0x3e59a9cc	0.21256179
104	0x3e915a68	0.28389287
105	0x3e710d2f	0.23540185
106	0x3e5ffa65	0.21872862
107	0x3e3d5692	0.18490055
108	0x3d5e15fa	0.054220177
109	0x3d1644dc	0.036686763
110	0x3d9b9803	0.07597353
111	0x3dc90449	0.098152705
112	0x3cb79877	0.022411568
113	0x3d398411	0.045291964
114	0x3d48a000	0.048980713
115	0xbc313579	-0.0108159715
116	0x3da729b7	0.08162253
117	0xbd9d39ba	-0.07677026
118	0xbd90ccb5	-0.07070295
119	0xbddf1a84	-0.10893729
120	0x3b0e3fb8	0.002170546
121	0xbd201f89	-0.039092574
122	0xbddbb4ce	-0.10727845
123	0x3ae4bc8c	0.0017451211
124	0xbd305637	-0.04305097
125	0xbd8fabe4	-0.070152074
126	0xbdd906cf	-0.10597002
127	0xbd49a833	-0.049232673
128	0xbcf58e21	-0.029974999
129	0xbd17d75f	-0.03707063
130	0xbdc32749	-0.095289774
131	0xbe0c0369	-0.13673176
132	0xbcdc0e07	-0.026862158
133	0xbd8a3e10	-0.06750119
134	0xbe8f361e	-0.27970976
135	0x3de03620	0.109478235
136	0xbcdcb3b8	-0.026941165
137	0x3d2d49e2	0.04230679
138	0x3cfb5861	0.03068179
139	0x3c9ccab1	0.01913962
140	0xbb2d4f0a	-0.0026444816
141	0x3daee98c	0.08540639
142	0xbac27532	-0.0014835952
143	0xbd2b4710	-0.041815817
144	0xbda063ae	-0.078315124
145	0xbd5fd96f	-0.05465072
146	0xbcce6ec3	-0.0251993
147	0xbdc831f1	-0.097751506
148	0xbd42b3cb	-0.047534745
149	0x3d0ae563	0.033910166
150	0x3c947c93	0.018125808
151	0xbc398c1e	-0.01132491
152	0xbbc68845	-0.006058725
153	0x3da59339	0.08084721
154	0x3d3e7573	0.046498727
155	0x3dd5d89a	0.10441704
156	0x3e124cbf	0.14287089
157	0x3da23133	0.0791954
158	0x3d2198f2	0.0394525
159	0x3e060ddd	0.13091226
160	0x3da745cd	0.0816761
161	0x3d78b0d7	0.060715523
162	0x3c6c4bba	0.0144223515
163	0xbd50256b	-0.050816935
164	0xbd135a1e	-0.035974614
165	0x3d0e1a2e	0.034692936
166	0xbdb5541c	-0.08853933
167	0xbd6e6780	-0.058204174
168	0x3db2c9a9	0.0872987
169	0xbd74559d	-0.05965196
170	0xbd2c51c6	-0.042070173
171	0xbd4733ba	-0.048633315
172	0xbd123dd8	-0.03570351
173	0xbdddf60d	-0.10837946
174	0x3c21a045	0.009864871
175	0xbda07522	-0.07834841
176	0xbdff38d0	-0.12462008
177	0xbd9aae6d	-0.075528
178	0xbd89a342	-0.06720592
179	0xbe1f2810	-0.15542626
180	0x3d835dd6	0.06414382
181	0xbc61c362	-0.013779493
182	0x3b87b55c	0.004141493
183	0x3dd85e23	0.1056483
184	0x3d8412c7	0.06448894
185	0x3c873da8	0.016508892
186	0x3dd6482b	0.10462984
187	0x3dbd5ecd	0.092465974
188	0x3bed5908	0.0072432794
189	0xbe173d84	-0.1476956
190	0xbe264dd2	-0.16240624
191	0xbe17fe85	-0.14843185
192	0xbde334eb	-0.11094078
193	0xbe1e9a35	-0.15488513
194	0xbe31a615	-0.17348512
195	0xbe2547bd	-0.16140647
196	0xbe564646	-0.20925245
197	0xbe9137c1	-0.2836285
198	0xbdacfc09	-0.084465094
199	0xbd604e9a	-0.05476246
200	0xbe00917a	-0.12555495
201	0xbd89a99b	-0.06721803
202	0xbda11262	-0.07864834
203	0xbdc54ffa	-0.09634395
204	0xbd0e2878	-0.034706563
205	0xbbf7d3c6	-0.007563087
206	0xbda2a462	-0.0794151
207	0xbe20bf0e	-0.15697882
208	0xbdcd55e0	-0.10026145
209	0xbd6bcfd5	-0.05757125
210	0xbd71c82a	-0.059028782
211	0xbe089403	-0.13337712
212	0xbda6de57	-0.08147877
213	0xbdf9d08f	-0.121979825
214	0xbe2071b4	-0.15668374
215	0xbe8fbe58	-0.28074908
216	0x3ac43d68	0.0014971914
217	0xbb7667a6	-0.00375984
218	0x3d72b6b4	0.05925627
219	0xbcf2abdb	-0.029622963
220	0xbd80111e	-0.06253265
221	0xbdb7d6b0	-0.08976495
222	0xbbdc67a1	-0.0067262207
223	0xbdc53953	-0.09630074
224	0xbda27063	-0.07931592
225	0xbd899ecb	-0.067197405
226	0xbd6665d7	-0.056249466
227	0xbe34b17e	-0.17645833
228	0xbcde6ce3	-0.02715153
229	0xbdc1fee0	-0.09472442
230	0xbe498a38	-0.19681633
231	0xbdca84eb	-0.09888633
232	0xbe16456c	-0.1467492
233	0xbe0108b6	-0.12600979
234	0x3e1c4498	0.15260541
235	0x3de646a0	0.112439394
236	0x3e41a539	0.18910684
237	0x3e692dd6	0.22771391
238	0x3df838ad	0.12120185
239	0x3d893b1a	0.06700726
240	0x3e032e81	0.12810709
241	0x3db34c52	0.08754791
242	0x3d53dfb2	0.051727004
243	0x3b17d442	0.0023167287
244	0x3da2b67f	0.079449646
245	0x3d6d066c	0.057867453
246	0x3dd4ad78	0.10384649
247	0x3e01f0d6	0.12689528
248	0x3cf85ac8	0.030316725
249	0x3d1b1bb1	0.037868205
250	0x3dbca054	0.09210268
251	0x3c470924	0.012148175
252	0xbd03293f	-0.032021757
253	0xbc9402f7	-0.01806782
254	0x3c3dfeac	0.011596363
255	0xbd9c0b41	-0.07619334

bias f4 [64]
0	0xba9e7378	-0.0012088856
1	0xbd6d784f	-0.057976063
2	0xbdb98ea6	-0.09060411
3	0xbd2cb101	-0.04216099
4	0xbd451f49	-0.04812554
5	0xbd21b7cf	-0.039481934
6	0xbcfe314a	-0.031029362
7	0xbc10ca0e	-0.008837236
8	0xbb63cdcb	-0.0034760113
9	0x3d5b8c71	0.053600732
10	0xbd41eb17	-0.04734334
11	0xbdab1d8b	-0.08355244
12	0xbc7364b2	-0.014855551
13	0xbce9e59b	-0.028551867
14	0xbd0dc65f	-0.03461301
15	0xbcc6b5f3	-0.024256682
16	0xbc832f9d	-0.016013915
17	0xbc64e90d	-0.013971579
18	0xbd002d6c	-0.031293318
19	0xbe0256a8	-0.12728369
20	0xbdbf236f	-0.0933293
21	0xbc7f2cff	-0.015574693
22	0xbd14c704	-0.03632261
23	0xbd37a16c	-0.04483168
24	0xbbf404ca	-0.00744686
25	0xbc8fb176	-0.017540675
26	0xbd58fecf	-0.05297738
27	0x3e219adf	0.15781735
28	0xbd280de9	-0.04102889
29	0xbc519280	-0.012791276
30	0xbb9028b8	-0.0043993853
31	0xbcf33951	-0.029690417
32	0xbc1cc5a1	-0.009568603
33	0xbd4291f4	-0.047502473
34	0xbc83bc4e	-0.016081002
35	0xbd5c449c	-0.05377637
36	0xbd7fe21a	-0.062471487
37	0xbd376bc9	-0.044780526
38	0xbd1e2a36	-0.038614474
39	0xbb97c3bc	-0.0046314877
40	0xbd917290	-0.07101929
41	0xbb9b5705	-0.004740598
42	0xbb203527	-0.0024445744
43	0xbd066a0e	-0.032815985
44	0xbd38b56c	-0.045094892
45	0xbb96ff70	-0.0046080872
46	0xbd364f59	-0.044509266
47	0xbbec5a81	-0.0072129373
48	0xbc33dedd	-0.010978428
49	0xbdd86454	-0.10566011
50	0xbc2e4973	-0.010637629
51	0xbd218957	-0.039437618
52	0xbc24193a	-0.01001578
53	0xbb8b3014	-0.0042476747
54	0xbba59833	-0.005053544
55	0xbc5e1988	-0.013555892
56	0xbcd6cf1d	-0.026221806
57	0xbc0e2a48	-0.008677073
58	0xbc968cd7	-0.018377705
59	0xbce4ce30	-0.02793035
60	0xbd9bc6a3	-0.07606246
61	0xbe50b802	-0.20382693
62	0xbdd1cf1b	-0.1024458
63	0x3d6ab71f	0.057303544

weight f4 [64, 64, 3, 3]
0	0x3e43d1be	0.19122979
1	0x3e36cd40	0.17851734
2	0x3e69c65d	0.22829576
3	0x3e35808c	0.17724818
4	0x3e4d5b81	0.20054437
5	0x3e38d48e	0.18049833
6	0x3e58b5ca	0.21163097
7	0x3e31a18e	0.17346784
8	0x3e3e5c47	0.18589889
9	0xbd2bf390	-0.041980326
10	0xbd8a32ee	-0.06747995
11	0xbcb072e5	-0.021539161
12	0xbc966f26	-0.018363547
13	0xbc974ec6	-0.01847018
14	0xbd5f0bfb	-0.054454785
15	0xbd604718	-0.0547553
16	0xbd8974a6	-0.06711702
17	0x3b911098	0.004427027
18	0x3d1d4c7e	0.038403027
19	0x3c2e187c	0.010625955
20	0xbc228929	-0.009920397
21	0x3c18bb5c	0.009322014
22	0xbd04d06b	-0.032425325
23	0x3c2a7eb5	0.010406186
24	0x3c60b64a	0.013715336
25	0xbd0fd45d	-0.035114635
26	0xbc853967	-0.016262723
27	0x3e03a171	0.12854554
28	0x3e15eba6	0.14640674
29	0x3e07496c	0.13211602
30	0x3e2a6583	0.16640286
31	0x3dff386f	0.12461936
32	0x3e0cb1fe	0.13739774
33	0x3de61619	0.112346835
34	0x3dbca2e0	0.092107534
35	0x3da38e22	0.07986094
36	0xbc6beb43	-0.0143993525
37	0xbd14e2b3	-0.03634901
38	0xbd6dafc2	-0.058028944
39	0x3cdb743f	0.026788829
40	0x3cacbef4	0.021087147
41	0xbc7b4cbe	-0.015338121
42	0xbca79143	-0.020455008
43	0x3cf5a6d1	0.02998677
44	0x3b49ba70	0.0030781291
45	0x3e31e0de	0.17370936
46	0x3e01a3ef	0.12660192
47	0x3daccde5	0.08437709
48	0x3dde0555	0.10840861
49	0x3da51127	0.08059912
50	0x3df33605	0.11875538
51	0x3e1ebf24	0.15502602
52	0x3dc8840c	0.09790811
53	0x3df0b9ec	0.11754212
54	0x3e4122dd	0.18860956
55	0x3de87a84	0.11351493
56	0x3e136a39	0.1439599
57	0x3e0e1e99	0.1387886
58	0x3de9250c	0.11384019
59	0x3e2ed690	0.17074037
60	0x3e3f280c	0.1866762
61	0x3e307fb6	0.17236218
62	0x3e0c72a7	0.13715611
63	0xbe4820b5	-0.19543727
64	0xbe81b9ff	-0.25337216
65	0xbeb08edc	-0.34483993
66	0xbe2880ad	-0.16455336
67	0xbe2e43ef	-0.17018102
68	0xbe66431c	-0.22486538
69	0xbe42acf4	-0.19011289
70	0xbe0dcef4	-0.13848478
71	0xbe2a5828	-0.16635191
72	0x3e36ab36	0.1783875
73	0x3e690320	0.22755098
74	0x3e6020b2	0.21887472
75	0x3e4356f6	0.19076142
76	0x3e4bd1b8	0.1990422
77	0x3e18f034	0.1493538
78	0x3e507b16	0.20359454
79	0x3e3aded5	0.18249066
80	0x3e481892	0.19540623
81	0x3ee90f3e	0.4551944
82	0x3ee0003f	0.43750188
83	0x3ee1ef59	0.4412792
84	0x3ef4c250	0.478045
85	0x3ee8d3af	0.45474002
86	0x3edfd029	0.437135
87	0x3edc7a27	0.43061945
88	0x3ee8fd53	0.4550577
89	0x3ee0340f	0.43789718
90	0x3e136c58	0.14396799
91	0x3db0ed5f	0.08639025
92	0x3e090ee6	0.1338459
93	0x3da21663	0.07914426
94	0x3e046377	0.12928568
95	0x3de84099	0.11340446
96	0x3e051b92	0.12998798
97	0x3dc43317	0.09580057
98	0x3db8f9f8	0.09032053
99	0x3dec755c	0.11545822
100	0x3d9bdc53	0.07610383
101	0x3ddb60c1	0.10711814
102	0x3e23d741	0.16000082
103	0x3e0c0a49	0.13675798
104	0x3e061ce6	0.13096961
105	0x3e100468	0.14064181
106	0x3d8c1924	0.06840733
107	0x3d967952	0.07347359
108	0x3dff444a	0.12464197
109	0x3d8a7afe	0.0676174
110	0x3daa496e	0.08314787
111	0x3dccb290	0.099949956
112	0x3d9e88fd	0.07740972
113	0x3dd7683b	0.10517927
114	0x3deaf0c4	0.11471704
115	0x3e03b14c	0.12860602
116	0x3db910ed	0.090364315
117	0xbdbf874a	-0.09351976
118	0xbe0aba7d	-0.13547702
119	0xbe259b56	-0.16172537
120	0xbdeef660	-0.11668086
121	0xbdb9864c	-0.09058818
122	0xbdcd5967	-0.10026818
123	0xbdd5cc6b	-0.1043938
124	0xbdbb9501	-0.091592796
125	0xbe0f76da	-0.14010182
126	0xbdc3adbf	-0.09554624
127	0xbe014003	-0.12622075
128	0xbe290a36	-0.16507801
129	0xbdcc5410	-0.09976971
130	0xbd9a417d	-0.07532022
131	0xbd98c151	-0.07458747
132	0xbd6d5fd1	-0.057952706
133	0xbdb23831	-0.08702124
134	0xbde8cd39	-0.11367268
135	0x3e1d4d92	0.15361622
136	0x3e1c4ee7	0.15264474
137	0x3e2b30f0	0.16717887
138	0x3e296e47	0.16545974
139	0x3e37c7e9	0.17947353
140	0x3e1278a7	0.14303838
141	0x3e105fc1	0.14099027
142	0x3dff8fee	0.12478624
143	0x3def526a	0.11685641
144	0x3f0822e5	0.53178245
145	0x3f158fa5	0.5842231
146	0x3f15b627	0.5848107
147	0x3f0c945c	0.5491388
148	0x3f121b55	0.57072955
149	0x3f14e665	0.58164054
150	0x3f038a03	0.51382464
151	0x3eedb050	0.46423578
152	0x3ee3c4d2	0.444861
153	0x3e8ada93	0.27119884
154	0x3e876d8a	0.2645076
155	0x3e5bfbd8	0.2148279
156	0x3e6bbf13	0.23022108
157	0x3e6b2fd0	0.22967458
158	0x3e8a4a64	0.2700988
159	0x3e8dece2	0.2771979
160	0x3e7b8e22	0.24565938
161	0x3e63b2ee	0.22236225
162	0x3d05e22a	0.03268639
163	0x3c08c2ca	0.008347223
164	0xbbbecc39	-0.005822685
165	0x3c6ea750	0.014566258
166	0xbd0e412d	-0.034730125
167	0xbce15ba4	-0.027509518
168	0x3ce3daf9	0.027814375
169	0x3c669f40	0.014076054
170	0xbd16b768	-0.036796004
171	0x3d5a93ff	0.053363796
172	0xbc5a6447	-0.013329572
173	0xbc9100a2	-0.017700497
174	0x3cef7a65	0.029233167
175	0x3d026b64	0.031840697
176	0xbd1ab884	-0.037773624
177	0x3d21b3bd	0.039478052
178	0x3d0b509c	0.034012422
179	0xbd47c08a	-0.048767604
180	0x3cb89a59	0.022534536
181	0x3cca6e66	0.024710845
182	0x3d347190	0.044053614
183	0x3cbd642c	0.023119055
184	0x3da195c3	0.07889893
185	0x3d1668a4	0.036720887
186	0x3cdd09d7	0.026982231
187	0x3d53df5c	0.051726684
188	0x3ca51023	0.020149296
189	0x3d8f862a	0.07008012
190	0x3dd828ba	0.10554643
191	0x3db7f67e	0.089825615
192	0x3da5ad8b	0.08089741
193	0x3d8b9965	0.06816367
194	0x3de4c999	0.11171264
195	0x3d70bd9f	0.058774587
196	0x3dd6df99	0.104918666
197	0x3ddea6cc	0.10871658
198	0xbda64354	-0.081183106
199	0xbdc2fb51	-0.09520591
200	0xbddd450d	-0.10804186
201	0xbd92e6db	-0.071729384
202	0xbdb33dfd	-0.08752058
203	0xbdbe8109	-0.09301955
204	0xbd881f4f	-0.06646597
205	0xbde65c53	-0.11248078
206	0xbd8aaf24	-0.06771687
207	0x3e17f756	0.14840445
208	0x3d8dfa2f	0.06932484
209	0x3d884545	0.06653837
210	0x3e1baa1e	0.15201613
211	0x3dfc2a54	0.12312761
212	0x3dd19f7a	0.10235496
213	0x3da54a7c	0.080708474
214	0x3d54aed7	0.051924553
215	0x3de3d000	0.11123657
216	0x3dddde81	0.10833455
217	0x3d47e46d	0.04880183
218	0x3d81a2dc	0.06329891
219	0x3ddbb534	0.10727921
220	0x3df72c0f	0.120689504
221	0x3d8cea40	0.06880617
222	0x3dc9bb36	0.09850161
223	0x3d9bae68	0.07601625
224	0x3dc5e8a9	0.09663517
225	0x3d654615	0.05597504
226	0x3cf66a71	0.030080052
227	0x3cc06b54	0.023488678
228	0x3b322f44	0.0027188817
229	0x3c2e6a19	0.010645413
230	0xbcec29bf	-0.0288285
231	0x3d28ef5f	0.041243907
232	0xbcda63d1	-0.026658924
233	0x3d047832	0.03234119
234	0x3e431a9a	0.19053116
235	0x3e066b63	0.13126902
236	0x3e1dba7d	0.15403171
237	0x3e2cd97e	0.16879842
238	0x3e078fa3	0.13238387
239	0x3e0dd0a6	0.13849124
240	0x3e26eccf	0.16301273
241	0x3e0899d1	0.13339926
242	0x3e0ef5b6	0.13960919
243	0xbde335d5	-0.11094252
244	0xbe114577	-0.14186655
245	0xbe67145f	-0.22566365
246	0xbdcd8964	-0.10035971
247	0xbdeac3fa	-0.11463161
248	0xbe4fb0ba	-0.2028226
249	0xbe08e306	-0.13367853
250	0xbe472742	-0.1944857
251	0xbe2f7fe7	-0.17138635
252	0x3ae3c6b2	0.0017377941
253	0xbdcfa6a7	-0.10139208
254	0xbda72685	-0.08161644
255	0xbd73f107	-0.059556033

bias f4 [64]
0	0xbdd8e0c4	-0.10589746
1	0x3d3b12fd	0.045672406
2	0xbc04f409	-0.008114823
3	0xbd2d14d0	-0.042256176
4	0xbdbd51d5	-0.09244124
5	0xbd5acd7e	-0.05341863
6	0xbc34d49d	-0.011037019
7	0x3d8fd788	0.07023531
8	0xbd46dc77	-0.048550095
9	0xbe6a4939	-0.22879495
10	0xbbe2b000	-0.0069179535
11	0x3ebc2153	0.36744174
12	0x3cf26beb	0.029592475
13	0xbcccd3e5	-0.025003383
14	0x3d93456a	0.07190974
15	0x3da179cc	0.07884559
16	0xbe1384c6	-0.14406118
17	0xbb858c02	-0.004075528
18	0x3d901661	0.070355184
19	0xbd3838d8	-0.044976085
20	0xbd9d92a4	-0.07693985
21	0x3cd2ed9f	0.025748072
22	0xbc5a64d5	-0.013329704
23	0xbd6262f8	-0.055270165
24	0x3dad5ee4	0.084653646
25	0xbd47508c	-0.0486608
26	0xbc2023e8	-0.009774186
27	0xbd3cbbea	-0.046077646
28	0xbb8c6d83	-0.0042855158
29	0xbd829b7a	-0.06377311
30	0xbd9bd5a3	-0.07609107
31	0xbba1beae	-0.004936061
32	0xbca57217	-0.020196004
33	0xbcccca7a	-0.024998892
34	0x3cb97c0c	0.022642158
35	0xbebb7fe6	-0.36621016
36	0xbcdb738b	-0.026788494
37	0xbdc12fa3	-0.09432914
38	0xbdc62db0	-0.09676683
39	0x3c43f2fe	0.011959789
40	0xbe2620a7	-0.16223393
41	0xbd93beab	-0.072141014
42	0xbd83d321	-0.06436754
43	0xbd43da2a	-0.04781548
44	0xbd429031	-0.047500793
45	0x3e8da95c	0.27668273
46	0xbe9b1e49	-0.30296543
47	0xbcbf4f9a	-0.023353387
48	0x3c70d1b0	0.014698431
49	0xbca2b9cd	-0.019863987
50	0xbd77da7d	-0.0605111
51	0x3d83f91c	0.06443998
52	0xbc922dd2	-0.017844114
53	0x3c7ce693	0.015435833
54	0x3d51f0c7	0.051255014
55	0xbd0dcef3	-0.03462119
56	0x3e3a1310	0.18171334
57	0x3b548052	0.0032425118
58	0xbd1be267	-0.03805771
59	0x3e944758	0.2896068
60	0x3d815c19	0.06316394
61	0x3add580c	0.0016887202
62	0x3d0309b6	0.031991683
63	0xbd76a244	-0.060213342

weight f4 [64, 1024]
0	0xbca8b070	-0.020591944
1	0xbdc550b6	-0.09634535
2	0xbb8f9a11	-0.00438238
3	0xbc8cff52	-0.01721159
4	0xbd7d534d	-0.06184702
5	0xbe18f388	-0.1493665
6	0x3d6c9d89	0.057767425
7	0x3d5f762e	0.054556064
8	0xbd8e8a28	-0.06959945
9	0xbd9057bf	-0.07047986
10	0xbcd3c9ae	-0.025853004
11	0x3c8427b6	0.016132217
12	0xbd40b603	-0.04704858
13	0xbd1c4d72	-0.038159795
14	0x3c2944e8	0.01033137
15	0x3ce7bce7	0.028288318
16	0x3d363f10	0.044493735
17	0xbd27b58a	-0.040944614
18	0x3c368e8c	0.011142384
19	0xbd0ee8b1	-0.03488988
20	0xbd5db389	-0.054126296
21	0xbdcbaa5b	-0.09944602
22	0x3d2c0092	0.04199273
23	0x3d8a9c4f	0.06768095
24	0xbceba84d	-0.028766776
25	0xbd8cf573	-0.06882753
26	0x3bfc03cc	0.0076908823
27	0x3d4cc6b9	0.049994204
28	0xbc0eab57	-0.008707843
29	0x3c682355	0.01416858
30	0xbbcf31e8	-0.006323088
31	0xbc7297b4	-0.014806677
32	0x3c0d5ade	0.008627621
33	0xb990cd08	-0.0002761858
34	0x3cf40302	0.02978659
35	0x3c9f6ad7	0.019460125
36	0x3cdb419d	0.026764685
37	0xbb94b653	-0.0045383363
38	0x3b674a70	0.003529217
39	0x3b7d689c	0.0038667088
40	0x3ceab8d2	0.028652582
41	0x3c9cddc6	0.019148719
42	0xbc89b276	-0.01680873
43	0x3cc32a35	0.023823837
44	0x3d1848ef	0.03717893
45	0xbcabfdee	-0.020995107
46	0x3c7a84a6	0.015290415
47	0x3d0844e6	0.03326883
48	0x3c901484	0.017587908
49	0xbd8429a8	-0.06453258
50	0x399b2c72	0.00029597018
51	0xbced162a	-0.028941233
52	0xbda7623d	-0.08173034
53	0xbded9118	-0.1159994
54	0x3ca08838	0.019596204
55	0x3d3f72d4	0.046740368
56	0xbc856ee0	-0.01628822
57	0xbd799189	-0.06092981
58	0x3bf74c49	0.0075469357
59	0x3c0cd4d8	0.008595668
60	0xbcc9fd49	-0.024656909
61	0xbca69f4b	-0.020339629
62	0x3cba814e	0.022766735
63	0x3ce5c11f	0.028046189
64	0x3cf68a16	0.030095141
65	0x3babf52b	0.005247732
66	0xbc30cc36	-0.010790875
67	0xbc703e52	-0.014663296
68	0x3cb525e7	0.0221128
69	0x3c500b43	0.0126979975
70	0x3c864698	0.016391084
71	0xbc901279	-0.017586933
72	0x3c8fc0c8	0.01754798
73	0x3cabcce8	0.02097173
74	0x3cafcc86	0.021459829
75	0xbc4095af	-0.011754437
76	0x3c4db582	0.012555482
77	0x3b129d6d	0.0022371665
78	0xbd3d64e0	-0.04623878
79	0xbcb6ac0f	-0.02229884
80	0xbc791f42	-0.015205206
81	0xbcc1b8ca	-0.023647685
82	0xbabc2989	-0.001435564
83	0x3b83d99a	0.004023743
84	0x3d0c5090	0.034256518
85	0x3cf940e9	0.03042646
86	0x3d051442	0.032490022
87	0xbc216457	-0.009850583
88	0x3c714e60	0.014728159
89	0x3c4f926e	0.012669189
90	0x3bd4cc47	0.0064940783
91	0x3b8067b2	0.0039186114
92	0xbbf7faa2	-0.0075677196
93	0xbb040b05	-0.002014817
94	0x3b75ec45	0.003752486
95	0x3c2ad095	0.010425706
96	0x3c9fc1d4	0.019501604
97	0xbd06f212	-0.0329457
98	0x3c68bbe6	0.014204955
99	0xbd09a0fb	-0.03360079
100	0xbd174705	-0.036932964
101	0xbde9a7cf	-0.1140896
102	0xbb389663	-0.002816581
103	0x3d9d9f3b	0.076963864
104	0xbc6f78bb	-0.014616187
105	0xbd8bdba9	-0.06829006
106	0x3c354d1e	0.011065749
107	0x3cb9753d	0.022638911
108	0xbd4ae0b7	-0.04953071
109	0x3bde486a	0.006783535
110	0x3cb505cc	0.02209749
111	0x3d17916b	0.037003916
112	0x3c9dd2cf	0.01926556
113	0xbd8172fa	-0.06320758
114	0x3d408868	0.047005087
115	0x3b152708	0.002275886
116	0xbd59afc2	-0.05314613
117	0xbdffddf7	-0.12493508
118	0x3d444d8c	0.047925517
119	0x3d25b795	0.04045828
120	0xbbb8152c	-0.0056177583
121	0xbd552f0d	-0.052046824
122	0x3c68b903	0.0142042665
123	0x3b77c815	0.0037808467
124	0xbd1cec16	-0.038311087
125	0xbd1ebea1	-0.038756017
126	0x3b76d241	0.0037661942
127	0x3cad4c01	0.021154406
128	0x3d3037d3	0.043021988
129	0xbd286790	-0.04111439
130	0x3b972db2	0.0046136016
131	0x3c86abdd	0.016439373
132	0xbd13049b	-0.035893064
133	0xbdfe11e0	-0.12405753
134	0x3d57f828	0.052726895
135	0x3d643c45	0.05572154
136	0xbcb4232e	-0.021989431
137	0xbd0498ac	-0.03237216
138	0xbca43438	-0.020044431
139	0x3b8dc9a9	0.0043270183
140	0xbd377c99	-0.04479656
141	0xbd3bae02	-0.045820244
142	0xbc8ae8ec	-0.016956769
143	0x3c3e7096	0.011623522
144	0x3c965a82	0.018353704
145	0xbca3b41f	-0.01998335
146	0x3cac03c4	0.02099789
147	0xbca5ae91	-0.020224841
148	0x3be94eb5	0.0071199783
149	0x3cc7e28e	0.024400022
150	0xbb9f30fa	-0.0048581334
151	0xba451a0e	-0.0007518836
152	0x3ccb80b1	0.024841638
153	0x3d092a01	0.033487324
154	0xbc775d6a	-0.015097955
155	0xbaef98e2	-0.0018279816
156	0xbd85ce0e	-0.065334424
157	0xbbff7446	-0.0077958433
158	0xbc65a4c4	-0.014016334
159	0xbc9841cd	-0.018586064
160	0x3d13ae7f	0.036055084
161	0xbca3fc7c	-0.020017855
162	0x3d308bad	0.043101955
163	0xbc088875	-0.008333315
164	0xbce52773	-0.027972912
165	0xbdca0b5e	-0.09865449
166	0x3d16699f	0.036721822
167	0x3db6a9c0	0.08919096
168	0x3a9929b9	0.0011685408
169	0xbdbe16f9	-0.092817254
170	0xbd04b23e	-0.032396547
171	0x3d25bd2e	0.04046362
172	0xbd4c6442	-0.0499003
173	0xbcf3035a	-0.029664684
174	0x3ca07783	0.019588238
175	0x3cba96e1	0.022777023
176	0xbdf57801	-0.119857796
177	0xbe47bba6	-0.19505176
178	0xbe8e752d	-0.27823773
179	0xbeb62932	-0.35578305
180	0x3d8f54d0	0.069985986
181	0xbe4377e1	-0.19088699
182	0xbef19ba6	-0.47189063
183	0xbe741cb7	-0.23839079
184	0x3c48ea0c	0.012262832
185	0xbe575717	-0.21029316
186	0xbdd85f62	-0.10565068
187	0xbe05436b	-0.13013999
188	0x3d38929d	0.045061696
189	0xbdf3b781	-0.11900235
190	0xbd6fb106	-0.058518432
191	0xbe05c0fd	-0.130619
192	0x3d332597	0.04373702
193	0xbca7ef80	-0.020499945
194	0x3a89d86b	0.0010516768
195	0xbd16047e	-0.036625378
196	0xbd53a269	-0.05166856
197	0xbdcb24ed	-0.099191524
198	0x3ccdae9d	0.025107676
199	0x3ce5b9bd	0.028042668
200	0xbc799f9b	-0.015235807
201	0xbdb6400c	-0.08898935
202	0x3c1a1281	0.009403826
203	0x3cd64c21	0.026159348
204	0xbd306147	-0.04306152
205	0x3c5e0a0d	0.013552201
206	0xbc13c50a	-0.009019146
207	0x3ccb94d3	0.024851238
208	0x3cfd9d11	0.030958684
209	0x3c92441b	0.01785474
210	0x3d033ee0	0.032042384
211	0x3c657db7	0.014007024
212	0x3b1af840	0.0023646504
213	0x3c954df0	0.01822564
214	0x3bfbcbc0	0.007684201
215	0x3cdbc9a8	0.026829556
216	0x3c2ee826	0.010675466
217	0xbcabed0f	-0.020987062
218	0xbc274231	-0.010208652
219	0xbc33176e	-0.010930879
220	0x3c8f45fc	0.017489426
221	0xb8e1436d	-0.00010741395
222	0x3b4dc4f1	0.0031397904
223	0x3c009553	0.007848102
224	0x3cf048dc	0.029331617
225	0xbd16031b	-0.036624055
226	0x3bd55275	0.006510074
227	0xbca57531	-0.020197483
228	0xbd36f109	-0.044663463
229	0xbde1b7d7	-0.11021393
230	0x3d413296	0.047167383
231	0x3d4fb349	0.05070809
232	0xbca32f4d	-0.019920016
233	0xbd99437a	-0.07483573
234	0x3cc6744f	0.024225382
235	0x3c53e513	0.0129330335
236	0xbd10f75b	-0.035392147
237	0xbc6a645c	-0.014306154
238	0x3cc25b7b	0.023725262
239	0x3c9a158b	0.0188091
240	0xbe6a3eaa	-0.22875467
241	0xbde45423	-0.1114886
242	0xbe31bcaf	-0.17357133
243	0xbe088824	-0.13333184
244	0xbd0d8a9d	-0.03455602
245	0x3be08ab5	0.0068524727
246	0xbdb48057	-0.088135414
247	0xbdc2bfaf	-0.09509217
248	0xbd41d4d8	-0.047322124
249	0x3d5a91ab	0.053361576
250	0xbe378a87	-0.17923938
251	0x3c285a2c	0.010275405
252	0xbe565046	-0.2092906
253	0xbdb39682	-0.087689415
254	0xbe418ab6	-0.1890057
255	0xbcac8b48	-0.021062508

bias f4 [64]
0	0xbe5f54b8	-0.21809661
1	0xbe390a9e	-0.18070456
2	0x3d5105d5	0.051030952
3	0xb938fe03	-0.00017642234
4	0x3d0b0c70	0.03394741
5	0xbcaa10cf	-0.020759968
6	0x3e6aa834	0.22915727
7	0xbe41477e	-0.18874928
8	0xbb8a6b1c	-0.004224194
9	0x3c584f13	0.0132024465
10	0xbcafb175	-0.021446923
11	0x3b61d41b	0.00344587
12	0x3c0eca8c	0.008715283
13	0xbce6b655	-0.028163115
14	0xbca308e3	-0.019901698
15	0xbe44345c	-0.19160599
16	0xbcf5c092	-0.029999051
17	0xbe4d9323	-0.2007566
18	0xbd13943f	-0.03603005
19	0x3be478cb	0.0069724075
20	0xbe099fc9	-0.1343986
21	0x39077767	0.00012919084
22	0xbd0e9fab	-0.03482024
23	0xbb7a1303	-0.0038158305
24	0x3c07af01	0.00828147
25	0x3c0d1e78	0.008613221
26	0xbd15d921	-0.036584023
27	0xbddb9d62	-0.10723378
28	0x3c9d7277	0.01921962
29	0xbd94bb87	-0.072623305
30	0xbd4caa74	-0.049967244
31	0xbd10d347	-0.03535774
32	0x3e2558cc	0.16147155
33	0xbe1dd6f7	-0.15414034
34	0xbccef192	-0.025261674
35	0x3c7042db	0.014664377
36	0xbb9e70c3	-0.0048352196
37	0xbe336eff	-0.1752281
38	0x3bb69a53	0.005572596
39	0xbd134d8d	-0.03596263
40	0xbd0e6190	-0.03476101
41	0xbd114756	-0.035468422
42	0xbc78f46e	-0.015194995
43	0x3c3e541b	0.011616732
44	0x3becaa1c	0.007222427
45	0xbca6881e	-0.020328578
46	0xbe6de0c2	-0.2323027
47	0xbd06a246	-0.0328696
48	0x3e89bc88	0.2690165
49	0xbc241015	-0.0100136
50	0x3eaafd47	0.3339636
51	0x3e13cfad	0.14434691
52	0x3e13206f	0.14367841
53	0x3ce4bae9	0.027921157
54	0xbd622cbe	-0.05521845
55	0xbe30bdb6	-0.17259869
56	0x3c97d36a	0.018533427
57	0x3ede550f	0.4342427
58	0x3b9cf96f	0.004790477
59	0xbd1df679	-0.038565133
60	0xbd168a50	-0.036753
61	0x3e6a32a6	0.22870883
62	0xbd8569c2	-0.06514312
63	0xbcabb0e3	-0.02095837

weight f4 [32, 64]
0	0xbd4b421a	-0.049623586
1	0xbdf95bac	-0.12175688
2	0xbdb5fa8e	-0.0888568
3	0xbcc4ade0	-0.024008691
4	0x3cfa78df	0.030575214
5	0xbde81e0e	-0.113338575
6	0xbd6d8ace	-0.057993703
7	0xbde397c4	-0.11112931
8	0x3de0d65d	0.109783866
9	0x3d2a8702	0.04163266
10	0xbd87ddd5	-0.06634108
11	0xbd0a8098	-0.033814043
12	0x3dc019b4	0.093799025
13	0x3d61ec88	0.055157214
14	0x3d6ade4f	0.057340916
15	0x3d132484	0.035923496
16	0x3d8ced40	0.06881189
17	0xbdf7c3af	-0.120978706
18	0xbdaf053a	-0.08545919
19	0x3d60f6cf	0.054922875
20	0xba1f86f5	-0.0006085479
21	0xbd8341a5	-0.06409005
22	0xbd801d10	-0.06255543
23	0x3cc44e9f	0.02396327
24	0xbdf64a99	-0.12025947
25	0xbcb7835d	-0.022401506
26	0xba5e8400	-0.00084882975
27	0x3c52ff23	0.012878212
28	0xbd8e07bf	-0.06935071
29	0xbda4004c	-0.08007869
30	0xbde186be	-0.11012028
31	0x3d9d7002	0.076873794
32	0xbd8a8fe7	-0.067657284
33	0xbd618b3e	-0.055064432
34	0xbd92fae8	-0.07176763
35	0x3d6a3655	0.05718072
36	0xbdfb1029	-0.12258942
37	0x3d6d11a0	0.057878137
38	0xbdc3a4cc	-0.09552917
39	0x3d9a23c6	0.075263545
40	0xbdd7e561	-0.105417974
41	0x3dea331c	0.114355296
42	0xbd9d0a10	-0.07667935
43	0xbdeb0a94	-0.11476627
44	0xbc469e76	-0.012122741
45	0xbd98cf0c	-0.07461366
46	0x3d4f82a5	0.0506617
47	0xbd4c16d4	-0.049826458
48	0xbdb77073	-0.08956995
49	0xbde9a326	-0.11408071
50	0xbda9ab14	-0.08284584
51	0x3cb99aee	0.022656884
52	0x3b3e9db4	0.0029085698
53	0xbc919128	-0.017769411
54	0xbcaf1f78	-0.02137731
55	0xbb29764e	-0.0025857869
56	0x3dc7d4e0	0.097573996
57	0xbd96bdc4	-0.07360414
58	0xbdcc9c1c	-0.09990713
59	0xbdd861f9	-0.10565562
60	0x3d2427ef	0.040077146
61	0xbc9f9a2a	-0.01948269
62	0xbd2d86b0	-0.042364776
63	0x3c6debc0	0.014521539
64	0x3d4d0d53	0.050061535
65	0x3d03d407	0.032184627
66	0x3ca58b32	0.020207975
67	0x3c0d4ff1	0.008625017
68	0xbd09387f	-0.033501144
69	0xbdb5a5ec	-0.08869538
70	0xbd7bf6ef	-0.06151479
71	0xbd70c8b8	-0.05878517
72	0xbc6cc1ca	-0.0144505
73	0xbddd684a	-0.10810907
74	0xbdf63028	-0.12020904
75	0x3da47a74	0.080311686
76	0x3d972585	0.07380203
77	0x3cab424a	0.020905633
78	0xbb6b2268	-0.0035878662
79	0x3db3838d	0.08765326
80	0x39ea2400	0.0004465878
81	0xbc29e0e5	-0.01036856
82	0xbd89cb12	-0.06728186
83	0x3d9522a8	0.07282001
84	0x3d092219	0.033479784
85	0xbe02b0ed	-0.12762804
86	0x3c8dce40	0.017310262
87	0xbdea7545	-0.11448149
88	0xbde7584c	-0.11296138
89	0x3ccba61c	0.02485948
90	0xbd6306e0	-0.05542648
91	0xbd6f646c	-0.05844538
92	0xbd1290d3	-0.035782646
93	0x3dc0d75b	0.09416076
94	0x3daa750e	0.08323108
95	0xbd727b54	-0.059199646
96	0xbeb5666b	-0.354297
97	0x3dfcc15e	0.12341569
98	0xbdb1e542	-0.086863056
99	0x3e0ab804	0.13546759
100	0xbdd7f4ba	-0.10544725
101	0x3cdc4c75	0.026891926
102	0xbdaa2017	-0.08306902
103	0xbd9f7e59	-0.07787771
104	0xbddf087b	-0.108902894
105	0x3da7c354	0.08191553
106	0xbd183f58	-0.037169784
107	0x3d9c213a	0.07623525
108	0xbdecc32d	-0.11560664
109	0xbd2c9cb6	-0.04214164
110	0xbe32e988	-0.17471898
111	0x3d595bb0	0.053065956
112	0xbd5cc421	-0.05389798
113	0x3d7753b6	0.060382567
114	0xbec6e919	-0.38849714
115	0x3ce274f9	0.027643668
116	0xbdc018f8	-0.093797624
117	0x3e18e085	0.14929397
118	0xbda04794	-0.078261524
119	0x3d5eb4b5	0.054371554
120	0xbda9e854	-0.08296266
121	0xbd881cdf	-0.06646132
122	0xbe01f65e	-0.12691638
123	0xbcd3c34f	-0.025849966
124	0xbdaac1ff	-0.08337783
125	0xbca8a1d0	-0.02058497
126	0xbd9bc416	-0.0760576
127	0xbdaeb9bf	-0.08531522
128	0xbdcc6a5d	-0.09981225
129	0x3ddf2614	0.10895935
130	0x3dcc15f3	0.09965124
131	0x3d4c45ac	0.04987113
132	0xbe4aea59	-0.19815959
133	0x3d27f888	0.041008502
134	0xbe8dcd92	-0.276959
135	0xbd550440	-0.052006006
136	0xbd0c9148	-0.03431824
137	0x3d3c8de4	0.046033755
138	0xbdd9c982	-0.10634138
139	0xbd18dc72	-0.037319608
140	0x3d8a6a72	0.06758584
141	0xbd852d68	-0.06502801
142	0x3ddc5668	0.10758668
143	0xba5fb2ef	-0.0008533438
144	0xbdce99c2	-0.10087921
145	0x3eef3fa0	0.4672823
146	0xbd84f748	-0.06492478
147	0xbdf833ba	-0.12119241
148	0xbe04e070	-0.12976241
149	0xbdc9d44e	-0.09854947
150	0xbdd804c5	-0.10547785
151	0x3da96c56	0.082726166
152	0xbcee3910	-0.029079944
153	0x3d293a40	0.041315317
154	0x3d876b64	0.0661228
155	0xbef5bd65	-0.4799606
156	0xbce296a0	-0.027659714
157	0x3d5feed7	0.054671135
158	0x3e0bb3a0	0.1364274
159	0xbd3dc4d8	-0.046330303
160	0xbe82d3d3	-0.25552234
161	0xbd8cd272	-0.06876077
162	0xbdc4fca6	-0.09618501
163	0x3c65c016	0.014022848
164	0x3d695ed8	0.056975216
165	0xbcceb53d	-0.025232906
166	0x3dcf1dc4	0.10113099
167	0xbde22fa6	-0.110442445
168	0xbef4c5cb	-0.47807154
169	0x3e0bee81	0.13665201
170	0x3e03f65e	0.1288695
171	0xbd8878bc	-0.06663653
172	0x3df2975a	0.11845274
173	0xbd6f5e88	-0.05843976
174	0xbeb7ff12	-0.3593679
175	0xbddfcc2e	-0.10927616
176	0x3dae9c5b	0.08525916
177	0x3cb9a358	0.022660896
178	0x3d318e05	0.04334833
179	0x3d992a70	0.074787974
180	0x3e659bcd	0.22422715
181	0x3e43afac	0.19109982
182	0x3d1f2c04	0.038860336
183	0x3c650438	0.013978057
184	0x3d7a8634	0.061163142
185	0x3eab616a	0.3347276
186	0xbc9540ae	-0.018219318
187	0x3d044e1e	0.03230106
188	0x3c742260	0.014900774
189	0xbe67774a	-0.22604099
190	0xbded1260	-0.115757704
191	0xbdecd98b	-0.115649305
192	0x3cd4dc7f	0.025984047
193	0xbdbe712a	-0.09298928
194	0xbe1e0792	-0.15432575
195	0xbdd6810a	-0.10473831
196	0x3e89862e	0.26860183
197	0x3d739d5c	0.05947624
198	0xbf20ac03	-0.6276247
199	0xbe0fce34	-0.14043504
200	0x3da63624	0.08115795
201	0x3bce99a0	0.0063049346
202	0xbdbf2376	-0.093329355
203	0x3c399b01	0.01132846
204	0x3d8465ee	0.06464754
205	0x3cf9f443	0.03051198
206	0xbdcb94a0	-0.09940457
207	0xbe16b911	-0.14719035
208	0xbcd121c8	-0.025528803
209	0xbda52fb3	-0.080657385
210	0xbd9ed9f2	-0.077564135
211	0xbde4dd0a	-0.11174972
212	0x3d4429fa	0.047891594
213	0x3db7239a	0.08942337
214	0x3c971a62	0.018445197
215	0xbc96a8d8	-0.018391058
216	0x3d9aef72	0.07565202
217	0x3c619680	0.013768792
218	0xbdfce3f0	-0.12348163
219	0xbf23a1ce	-0.6391877
220	0xbde82522	-0.113352075
221	0x3c3585fc	0.011079308
222	0xbdd27f18	-0.102781475
223	0xbcdb9230	-0.026803106
224	0xbe481805	-0.19540413
225	0xbb50abc3	-0.003184066
226	0xbc8aa317	-0.01692347
227	0xbd831830	-0.06401098
228	0x3dfbdd06	0.12298016
229	0xbe01c617	-0.12673222
230	0xbddba118	-0.107240856
231	0x3d317138	0.043320864
232	0x3c86d0eb	0.016457042
233	0xbe0a9e30	-0.13536906
234	0xbbacc680	-0.0052726865
235	0x3df24880	0.118302345
236	0xbd658fc4	-0.05604531
237	0x3c011e30	0.007880732
238	0xbe292a22	-0.16519979
239	0x3d1d3448	0.038379937
240	0xbd8e7482	-0.06955816
241	0x3da77240	0.08176088
242	0x3e264d3a	0.16240397
243	0xbe98d956	-0.29853314
244	0xbd2dec85	-0.04246189
245	0xbdaba79c	-0.08381578
246	0x3dd1f19c	0.102511615
247	0x3c378639	0.011201435
248	0xbdeaac62	-0.11458661
249	0x3ea34a9a	0.31892854
250	0xbd95f5c7	-0.07322269
251	0x3dc14a99	0.094380565
252	0x3d8acedc	0.067777365
253	0xbe74d6fe	-0.23910138
254	0x3d41552d	0.04720037
255	0xbde487ef	-0.1115874

bias f4 [32]
0	0x3cd50e9e	0.026007947
1	0xbdf599ca	-0.119922236
2	0xbea5648e	-0.3230328
3	0x3ed18ba2	0.40926844
4	0x3f561108	0.8361974
5	0x3cee1228	0.029061392
6	0x3f2a3025	0.6647971
7	0x3e1734bf	0.14766215
8	0x3e12368e	0.14278623
9	0xbe8fda19	-0.28096083
10	0x3e86455e	0.26224798
11	0x3d8b30ed	0.06796441
12	0x3f2151bf	0.6301536
13	0x3f46e394	0.77691007
14	0xbf0ced8f	-0.55049986
15	0xbe4084f3	-0.18800716
16	0x3e4885c8	0.19582283
17	0x3d99b95f	0.0750606
18	0xbc5e87a0	-0.01358214
19	0xbd59b179	-0.053147767
20	0x3f522eae	0.8210248
21	0xbf43bbd5	-0.76458484
22	0xbe854f65	-0.26037136
23	0x3e9272d1	0.28603223
24	0xbe6ab5bc	-0.22920889
25	0x3f5c211b	0.85988015
26	0x3e8e9b99	0.27853087
27	0xbec2a3df	-0.3801565
28	0x3e5c08e6	0.2148777
29	0x3f097fd5	0.5371068
30	0x3e41b34c	0.18916053
31	0x3e230bb3	0.15922432

weight f4 [16, 32]
0	0xbce024c0	-0.027361274
1	0x3da394d7	0.07987373
2	0x3dfa530c	0.12222871
3	0x3d065bd5	0.03280242
4	0xbe0b97d8	-0.13632143
5	0x3e2a6aac	0.16642255
6	0xbe46af76	-0.1940287
7	0xbe24b9be	-0.1608648
8	0xbe1c9f95	-0.1529525
9	0xbf1d4ac3	-0.614422
10	0xbe0dd48b	-0.1385061
11	0xbd7c0ff8	-0.061538666
12	0x3e27aec7	0.16375266
13	0xbf052b3d	-0.520191
14	0x3e18bf17	0.14916645
15	0xbe151ef9	-0.14562596
16	0x3e994689	0.29936627
17	0xbcfb5783	-0.030681377
18	0xbdd89830	-0.105759025
19	0x3d6912ce	0.0569027
20	0xbe326dc1	-0.1742468
21	0x3e28d6a7	0.16488133
22	0xbd089ef7	-0.033354726
23	0xbdd28cc0	-0.10280752
24	0x3dc6c383	0.0970526
25	0xbd97c47c	-0.07410523
26	0xb993a340	-0.00028159656
27	0x3e0ffaad	0.14060469
28	0xbccdc184	-0.02511669
29	0xbe1c3d78	-0.15257823
30	0xbd6ef74e	-0.058341317
31	0xbe87268a	-0.2639659
32	0xbd43ddc8	-0.04781893
33	0x3dd6a9d8	0.10481614
34	0xbe58d7c0	-0.21176052
35	0xbeac1780	-0.3361168
36	0x3e24e468	0.16102755
37	0x3d9dd97c	0.077074975
38	0x3e8e94e0	0.27847958
39	0x3d95f588	0.07322222
40	0x3d54efdb	0.051986557
41	0xbda242a9	-0.07922871
42	0x3e5bdc07	0.21470653
43	0x3e7aa29d	0.24476095
44	0x3e8be37a	0.27321988
45	0x3e4b4095	0.19848855
46	0x3cecf134	0.028923608
47	0xbd1fd588	-0.039022
48	0xbf0bb6f8	-0.54576063
49	0xbe3fecc7	-0.18742667
50	0x3e2cb9ef	0.16867803
51	0x3de98fec	0.11404404
52	0x3ef11200	0.47084045
53	0xbec73db0	-0.3891425
54	0xbe5aa59d	-0.21352239
55	0x3e0201c5	0.12695988
56	0x3e12173a	0.14266673
57	0x3e85f33a	0.2616213
58	0xbedc8724	-0.43071854
59	0xbd36121b	-0.04445086
60	0xbdacedfe	-0.08443831
61	0x3c75e64e	0.015008522
62	0xbd0a37ff	-0.03374481
63	0x3d103af6	0.03521248
64	0xbcd09645	-0.02546228
65	0xbc4b29d7	-0.012400112
66	0xbf025a6f	-0.5091924
67	0xbe34e5f3	-0.17665844
68	0x3cca4f37	0.024695976
69	0xbd8480f0	-0.064699054
70	0x3e136a7c	0.1439609
71	0xbe9d6ae1	-0.30745605
72	0xbe2ad57a	-0.16682997
73	0xbf6bf5ad	-0.92171746
74	0xbd98f213	-0.07468047
75	0xbda2f817	-0.07957476
76	0xbdecd29d	-0.11563609
77	0x3e3af7a0	0.18258524
78	0xbf18c4f5	-0.5967553
79	0xbf6d6d7f	-0.927452
80	0x3e888324	0.26662552
81	0x3e070326	0.13184795
82	0x3db4924f	0.08816969
83	0xbddd1ed1	-0.107968934
84	0xbe627660	-0.22115469
85	0x3ece1921	0.40253547
86	0xbe8651d2	-0.262343
87	0xbc6f46f4	-0.014604319
88	0x3d9a44fc	0.07532689
89	0xbf2200fb	-0.63282746
90	0x3ddf34d6	0.108987495
91	0xbf93d91e	-1.1550634
92	0x3ead06e2	0.33794314
93	0xbf89ca06	-1.0764778
94	0xbe0d560f	-0.1380236
95	0x3bac4d12	0.005258211
96	0x3e157fe8	0.14599574
97	0x3e2b2db0	0.16716647
98	0xbcdfbfa6	-0.027313065
99	0xbe143924	-0.14474922
100	0x3ed007f1	0.4063106
101	0x3dc0c1ce	0.09411965
102	0x3e466532	0.1937454
103	0xbdf7ed8a	-0.12105854
104	0xbd21643b	-0.039402228
105	0xbd900212	-0.07031645
106	0x3d10f6c7	0.035391595
107	0x3d86b1b4	0.06576863
108	0x3de4bfac	0.11169371
109	0xbb9dd4da	-0.0048166336
110	0xbe198eb4	-0.14995843
111	0x3e5204ce	0.20509645
112	0xbceb876e	-0.028751101
113	0xbe4c238a	-0.19935432
114	0xbe1647c1	-0.1467581
115	0xbdd5c345	-0.10437635
116	0xbdc4956c	-0.095988125
117	0xbf1327b8	-0.5748248
118	0x3dcabb99	0.09899063
119	0x3e04ca20	0.1296773
120	0x3eb555d4	0.35417044
121	0xbdb1b0c8	-0.086762965
122	0x3dbdc652	0.09266342
123	0x3e690e23	0.22759299
124	0xbdcd97a1	-0.100386865
125	0x3e2f4c53	0.17118959
126	0x3deb0353	0.114752434
127	0x3dcf4085	0.10119728
128	0xbdf37f40	-0.118895054
129	0x3e0b3814	0.13595611
130	0x3d555b06	0.05208876
131	0xbe065344	-0.13117701
132	0x3e84be3c	0.25926387
133	0xbe67c5b1	-0.22634007
134	0x3d9053cf	0.07047235
135	0x3e2eeb71	0.17082001
136	0x3d8ff6cd	0.070294954
137	0xbe93bced	-0.28855076
138	0x3db27914	0.087145
139	0x3deb6598	0.11493987
140	0x3e94f2a0	0.29091358
141	0x3da0aaee	0.07845102
142	0xbe826464	-0.25467217
143	0x3ca13214	0.0196772
144	0xbec55486	-0.3854105
145	0xbdc0b449	-0.09409387
146	0xbdaf66df	-0.08564543
147	0x3cf169ea	0.02946945
148	0x3de7e888	0.11323649
149	0xbede97c7	-0.43475172
150	0x3e216476	0.15760979
151	0x3e697a46	0.2280055
152	0x3deb30ed	0.11483941
153	0x3bbf2a20	0.005833879
154	0xbcddbef6	-0.027068596
155	0x3da92b4f	0.082602136
156	0xbd268982	-0.04065848
157	0x3dce9fce	0.10089074
158	0x3db17e18	0.086666286
159	0xbc953927	-0.018215729
160	0xbd66f412	-0.056385107
161	0xbe09083f	-0.13382052
162	0x3f03fa47	0.5155377
163	0xbcb30c86	-0.021856558
164	0xbe5d04b6	-0.21583828
165	0xbe5fc915	-0.2185405
166	0x3d960411	0.07324994
167	0x3d943ebd	0.07238529
168	0xbd8e3250	-0.0694319
169	0xbf026d77	-0.5094828
170	0x3c74cffd	0.014942166
171	0xbd929d6e	-0.071589336
172	0x3eb91a26	0.36152762
173	0xbf56f43a	-0.8396641
174	0x3cf37516	0.029718917
175	0xbd8a8aee	-0.0676478
176	0x3b84d9cb	0.0040542833
177	0x3d706914	0.05869396
178	0x3e310669	0.17287602
179	0xbbec17c9	-0.007204984
180	0xbe81789b	-0.25287327
181	0x3e54265e	0.20717761
182	0xbebd48ae	-0.36969513
183	0x3d2af048	0.041733056
184	0x3f050d4c	0.51973414
185	0x3dca874d	0.09889088
186	0x3b89c9f2	0.004204982
187	0x3dd8a3a5	0.10578088
188	0xbe2c540d	-0.16828938
189	0xbe276917	-0.16348682
190	0xbdb28369	-0.08716471
191	0x3c06da95	0.008230825
192	0x3cf62fbf	0.030052064
193	0x3d795299	0.060869787
194	0xbeb6fb46	-0.3573858
195	0xbed52b53	-0.41634616
196	0x3e129314	0.14313918
197	0xbce4e5c4	-0.027941592
198	0xbe52a6a4	-0.20571381
199	0x3d4f6bb2	0.050639816
200	0x3b65f04b	0.0035085853
201	0xbec7c968	-0.39020848
202	0x3d820744	0.06349042
203	0x3c784265	0.015152548
204	0x3d7be030	0.0614931
205	0xbd8088fb	-0.06276127
206	0x3d3f1565	0.046651263
207	0xbe49d122	-0.19708684
208	0xbe872814	-0.26397765
209	0x3e44279c	0.19155735
210	0x3e024cc6	0.12724599
211	0xbdb06f89	-0.08615024
212	0xbe4b124d	-0.198312
213	0xbf09c9bc	-0.5382345
214	0xbe902a9f	-0.28157517
215	0xbdb7839d	-0.0896065
216	0xbda12b53	-0.078695916
217	0x3d96e724	0.07368305
218	0xbf1c968c	-0.61167216
219	0xbe6b9811	-0.23007227
220	0x3dae1289	0.08499629
221	0xbd2a842d	-0.04162996
222	0xbd075685	-0.033041496
223	0xbd02738a	-0.031848468
224	0xbd60c678	-0.054876775
225	0xbdf9ff49	-0.12206895
226	0xbf2bd29c	-0.6711824
227	0xbec243aa	-0.3794225
228	0x3d9903d9	0.07471437
229	0xbe54bab8	-0.20774353
230	0x3e39e844	0.18155009
231	0xbd9e6993	-0.077349804
232	0xbda29ecf	-0.079404466
233	0xbf1b9458	-0.6077323
234	0x3d4dabb7	0.05021259
235	0x3deedd0d	0.11663256
236	0x3e0b809e	0.13623282
237	0x3bf2f147	0.0074140164
238	0xbe736c5e	-0.23771808
239	0x3d72d6c0	0.059286833
240	0xbe80b331	-0.25136712
241	0x3d7a9541	0.061177496
242	0xbe51a4bb	-0.20472996
243	0x3df78610	0.12086117
244	0x3e45862f	0.19289468
245	0xbf92c101	-1.146515
246	0xbeaf3784	-0.34222043
247	0x3e3f7109	0.18695463
248	0xbd94354e	-0.072367296
249	0x3db7e23e	0.08978699
250	0xbedf35b1	-0.4359565
251	0xbf4d0ee1	-0.8010083
252	0x3cf2414c	0.029572152
253	0x3e28a8db	0.16470663
254	0x3e24ed69	0.1610619
255	0xbd47ae45	-0.04875018

bias f4 [16]
0	0x3db417b9	0.08793587
1	0x3f5f4183	0.8720934
2	0x3eb0a29e	0.34499067
3	0x3f1679dc	0.5877969
4	0x3f342504	0.7036898
5	0x3e46819e	0.19385383
6	0x3efa22e7	0.48854753
7	0x3f32d23c	0.6985204
8	0x3f153e9e	0.5829867
9	0xbde80a16	-0.11330049
10	0x3f33d641	0.702488
11	0x3f5b5308	0.8567357
12	0x3f2ed7ff	0.68298334
13	0x3f76babb	0.9637868
14	0x3eb9e8b0	0.3631034
15	0x3ef28c3d	0.47372618

weight f4 [1, 16]
0	0xbe9027fe	-0.28155512
1	0x3ee48a11	0.44636586
2	0xbed21629	-0.41032532
3	0x3da14d23	0.07876041
4	0x3e5e814b	0.21729009
5	0xbe5b24e1	-0.21400787
6	0x3b93fd2f	0.004516266
7	0x3dbf8526	0.09351568
8	0x3e0d36c9	0.1379043
9	0xbe06d83b	-0.13168423
10	0x3e1211b5	0.14264567
11	0x3de33ca1	0.110955484
12	0x3e76dfa9	0.24108757
13	0x3e95a22b	0.29225287
14	0x3f231f7a	0.63719904
15	0xbec93f2f	-0.39306018
